models/model_1.pth (torch, 35719 bytes, 10 tensors)

conv_block_1.0.weight f4 [10, 3, 3, 3]
0	0x3b7b56a3	0.00383512
1	0x3d6df7be	0.058097593
2	0xbbc7b87a	-0.0060949894
3	0x3df589b2	0.11989154
4	0xbdf491f3	-0.119419
5	0xbe1d94f9	-0.1538886
6	0x3e1fedcf	0.1561806
7	0x3d267dc4	0.040647283
8	0xbe29020c	-0.16504687
9	0xbd025037	-0.03181478
10	0x3e0e6809	0.13906874
11	0xbe0de162	-0.13855508
12	0xbe3c2a8d	-0.18375607
13	0x3c70eafb	0.014704461
14	0xbde5594d	-0.111986734
15	0xbdd5fb30	-0.10448301
16	0xbde34731	-0.11097563
17	0xbdc3459c	-0.09534761
18	0xbdc7cc91	-0.09755815
19	0x3e2c3c07	0.16819774
20	0xbcea5e37	-0.028609378
21	0x3e0ff8f4	0.14059812
22	0xbd3b41bb	-0.045716982
23	0xbe3e7c7a	-0.18602172
24	0x3dff90c3	0.12478783
25	0x3d95cdda	0.07314654
26	0x3dc955f3	0.09830847
27	0xbdd8dd1c	-0.10589048
28	0x3c6ef9e0	0.014585942
29	0xbde0dafd	-0.10979269
30	0x3c48e78d	0.012262237
31	0xbde10e86	-0.10989098
32	0xbd4e8c0b	-0.050426524
33	0xbe048190	-0.12940049
34	0xbdbf5463	-0.09342267
35	0x3d533b2a	0.051570095
36	0x3c8b5894	0.01701001
37	0xbdfa112a	-0.12210305
38	0x3dafa24e	0.08575879
39	0xbc6f3236	-0.014599374
40	0xbca05dd9	-0.019576
41	0xbaddbc08	-0.0016917
42	0xbe188c05	-0.14897163
43	0x3e188553	0.14894609
44	0x3c90491a	0.017612983
45	0xbe194606	-0.14968118
46	0x3e06e22b	0.13172214
47	0xbd68c379	-0.056827042
48	0x3dcbec07	0.09957128
49	0x3bff30a1	0.0077877794
50	0xbddb6e22	-0.107143655
51	0x3d9e772e	0.077375755
52	0xbdcf6f74	-0.1012868
53	0xbc1532d5	-0.009106358
54	0x3e1a4822	0.15066579
55	0xbe276f9c	-0.1635117
56	0x3d272839	0.040809844
57	0x3dff2011	0.12457288
58	0x3e3a3803	0.1818543
59	0x3cc6d64f	0.024272112
60	0x3d5fe684	0.054663196
61	0x3e4a06f5	0.19729216
62	0x3dee31f7	0.11630624
63	0x3cf48584	0.029848821
64	0xbdbbd3e5	-0.09171275
65	0x3e0596c6	0.13045797
66	0xbe0db3a7	-0.13838063
67	0x3d5050ed	0.050858427
68	0xbdafc4c9	-0.08582456
69	0x3e0f69aa	0.14005151
70	0x3ca8f225	0.020623276
71	0x3d4603f5	0.048343617
72	0x3dc6cabc	0.09706637
73	0xbe340153	-0.1757863
74	0x3e45335a	0.1925787
75	0x3e184445	0.14869793
76	0xbe154435	-0.145768
77	0x3e1edc4f	0.15513729
78	0x3df72a1e	0.1206858
79	0x3d82428d	0.0636035
80	0xbd98cace	-0.07460557
81	0x3d9b75c7	0.075908236
82	0xbe2ff914	-0.1718486
83	0x3d5b278d	0.053504515
84	0xbd9acb83	-0.07558348
85	0xbd8512bd	-0.06497715
86	0xbe0a1d56	-0.13487753
87	0xbe064899	-0.13113631
88	0x3d8e6dc4	0.0695453
89	0x3e27259d	0.16322942
90	0x3dbcb933	0.092150114
91	0xbda783fc	-0.08179471
92	0x3d9be788	0.076125205
93	0xbbf3f63e	-0.007445126
94	0x3d7c4318	0.061587423
95	0x3e12a12b	0.14319293
96	0xbd8526e5	-0.06501559
97	0xbe1d1b07	-0.15342341
98	0xbc097086	-0.008388644
99	0x3e48f39a	0.19624177
100	0x3b8747db	0.004128439
101	0xbd406955	-0.046975452
102	0x3dbdd093	0.09268298
103	0xbdf541bd	-0.11975429
104	0xbe0ff3f4	-0.14057904
105	0xbe1d7aa2	-0.15378812
106	0xbd8b1f6b	-0.06793102
107	0x3db60ff8	0.088897645
108	0xbdb27a4a	-0.08714731
109	0x3cda90e0	0.02668041
110	0x3c3a0283	0.011353138
111	0xbd8c9ee3	-0.06866243
112	0x3c80dc74	0.01573012
113	0xbde79fb7	-0.1130976
114	0xbdcee5f6	-0.10102455
115	0xbe2ff6b6	-0.17183957
116	0xbb2aeafd	-0.0026080005
117	0x3dc01619	0.09379215
118	0xbd9af70a	-0.0756665
119	0x3dc1f90d	0.09471331
120	0xbd637fc7	-0.05554178
121	0x3de3a4e6	0.11115436
122	0x3e05d068	0.13067782
123	0xbd05ad8d	-0.032636214
124	0xbcb61336	-0.022225957
125	0xbdbefdd9	-0.09325761
126	0x3e0187da	0.1264948
127	0xbde99ca4	-0.1140683
128	0x3e10d77e	0.14144704
129	0x3e25e533	0.16200714
130	0x3e4fc85c	0.20291275
131	0x3df2041c	0.1181719
132	0x3dcf1390	0.10111153
133	0xbb345309	-0.0027515313
134	0xbd9487f1	-0.07252491
135	0xbceb8c6f	-0.028753487
136	0xbdb3e2e5	-0.08783511
137	0xbd446dba	-0.047956206
138	0x3db45b6f	0.08806502
139	0x3e4ac378	0.19801128
140	0x3e08091b	0.13284723
141	0xbdbabf4d	-0.09118519
142	0xbd79b1b9	-0.060960505
143	0x3e2b47c5	0.16726597
144	0x3db8f25a	0.090306
145	0x3ca86127	0.020554138
146	0xbda6d4c8	-0.081460536
147	0x3d250962	0.04029215
148	0xbe361fb1	-0.17785527
149	0xbe2e8089	-0.1704122
150	0xbb6f57a7	-0.003652075
151	0x3d560de4	0.05225934
152	0x3e00877b	0.12551682
153	0x3e00adec	0.12566346
154	0xbd20e7a5	-0.039283413
155	0x3dd28376	0.102789804
156	0x3dd59b21	0.10429979
157	0x3dc682bf	0.096929066
158	0x3e12ffcb	0.1435539
159	0x3cbd8974	0.023136832
160	0x3c7c5ca6	0.0154029485
161	0x3deea12e	0.11651836
162	0x3df83f6e	0.12121473
163	0x3df7061e	0.12061714
164	0x3e2eecfe	0.17082593
165	0xbe11e139	-0.14246072
166	0xbdac5b07	-0.084157996
167	0x3c11f5b1	0.008908675
168	0xbe15fd3e	-0.14647385
169	0xbe25eed0	-0.16204381
170	0x3d4d2fe4	0.0500945
171	0x3e1ad4f7	0.15120302
172	0xbdeb2de4	-0.11483362
173	0xbe13dad7	-0.1443895
174	0x3e161d5f	0.14659642
175	0xbe3fe3f9	-0.18739308
176	0x3cc6aab9	0.024251329
177	0x3e2b2155	0.16711934
178	0x3d8b2c03	0.06795504
179	0xbd86940b	-0.06571206
180	0xbdf09923	-0.117479585
181	0x3dda8660	0.10670161
182	0xbde4f857	-0.111801796
183	0xb9dcf9dc	-0.0004214783
184	0xbd5cc74b	-0.053900998
185	0x3d26eadc	0.040751323
186	0x3c73f5e7	0.014890171
187	0x3e17794b	0.14792363
188	0x3ce82be7	0.028341247
189	0x3e03fc36	0.1288918
190	0xbdd14ac5	-0.10219339
191	0x3e100285	0.14063461
192	0xbd8bdcf4	-0.06829253
193	0xbca214fc	-0.019785397
194	0x3d1bd776	0.038047276
195	0xbd33d72f	-0.043906387
196	0x3db407e4	0.087905675
197	0x3de8feee	0.11376749
198	0xbd59f364	-0.05321063
199	0x3e106d54	0.14104205
200	0x3de7cff4	0.11318961
201	0x3de99258	0.11404866
202	0x3dfaec1d	0.12252066
203	0xbe43241b	-0.19056742
204	0xbe2b4caf	-0.16728471
205	0xbd766dcd	-0.060163308
206	0x3c4741d8	0.0121616945
207	0xbe4873b8	-0.19575393
208	0xbe32196d	-0.17392512
209	0x3d85d107	0.065340094
210	0xbd17384a	-0.036918916
211	0xbe34093f	-0.17581652
212	0x3e1ce312	0.15320995
213	0xbe20d8fe	-0.15707776
214	0x3d1335c9	0.035939965
215	0x3db287a8	0.087172806
216	0xbe5abaec	-0.21360368
217	0xbd950c4b	-0.07277735
218	0x3d88ebb9	0.066855855
219	0xbb7d1cc7	-0.003862189
220	0x3ce8da03	0.028424269
221	0xbd8ffffa	-0.070312455
222	0xbe06a1dd	-0.13147683
223	0xbdb4d27b	-0.088292085
224	0x3d728b57	0.059214916
225	0x3d740b71	0.059581224
226	0xbdb6ada9	-0.08919842
227	0xbe3b44e2	-0.18287995
228	0x3dd3dbbd	0.10344646
229	0xbe12e92d	-0.14346762
230	0x3d54217e	0.051789753
231	0xbe0a6c69	-0.13517918
232	0x3e03b395	0.12861474
233	0x3d0fc7a0	0.035102487
234	0x3da99d51	0.08281959
235	0xbe4305b1	-0.1904514
236	0x3e10a1ad	0.14124174
237	0x3d58e412	0.05295188
238	0x3d4d5d28	0.05013767
239	0xbe0c9912	-0.13730267
240	0xbddf9449	-0.10916955
241	0x3dd5a9ec	0.10432801
242	0xbdad77b0	-0.08470094
243	0xbe17fea0	-0.14843225
244	0x3d9e5b27	0.0773223
245	0x3d1efb89	0.0388141
246	0xbe08e727	-0.13369428
247	0x3d1901e8	0.037355334
248	0xbe20419d	-0.1565003
249	0xbbdad87f	-0.0066786404
250	0x3e283245	0.16425426
251	0xbdc4ba1b	-0.09605809
252	0x3de9b6ce	0.1141182
253	0xbe31897c	-0.17337602
254	0xbc3646e2	-0.011125298
255	0x3cc09409	0.023508089

conv_block_1.0.bias f4 [10]
0	0xbe134698	-0.14382398
1	0x3cb01734	0.02149544
2	0xbe28ea0b	-0.1649553
3	0x3e2a498b	0.16629617
4	0x3dbdaa07	0.09260946
5	0x3d8764a1	0.0661099
6	0xbdfcb303	-0.12338831
7	0xbe351fb1	-0.1768787
8	0x3db918ce	0.09037934
9	0x3e54fec1	0.20800306

conv_block_1.2.weight f4 [10, 10, 3, 3]
0	0x3d6b368e	0.057425074
1	0xbd5b7dc3	-0.053586733
2	0x3d00368e	0.031302027
3	0xbd246c18	-0.04014215
4	0xbd4db5ba	-0.050222136
5	0x3d82c70d	0.06385622
6	0x3cfbb484	0.030725725
7	0x3c4b6e58	0.012416445
8	0x3b592a80	0.0033136904
9	0x3b4cde00	0.0031260252
10	0x3d923007	0.07138067
11	0xbdbebf22	-0.093137994
12	0x3cda37b4	0.02663789
13	0x3d8077d1	0.06272853
14	0xbd84c114	-0.06482139
15	0x3d0d5672	0.03450627
16	0x3dbf1667	0.09330445
17	0x3d74e74e	0.0597909
18	0xbdb6d485	-0.08927254
19	0xbd79a620	-0.060949445
20	0x3cde6288	0.027146593
21	0x3d062670	0.0327515
22	0x3d139e4d	0.03603964
23	0xbd4ff3bf	-0.050769564
24	0xbda1f2f3	-0.07907667
25	0x3c6a3329	0.014294424
26	0x3d4b0d4d	0.04957323
27	0x3d46f1ae	0.048570327
28	0x3c43d6d0	0.011953071
29	0x3b62e340	0.0034620315
30	0xbbf66ac1	-0.0075200503
31	0xbd9a8e88	-0.07546717
32	0xbca10ec8	-0.019660369
33	0x3cea3cf9	0.028593527
34	0x3d912d68	0.07088739
35	0xbcd8bf03	-0.026458269
36	0x3d381d23	0.044949662
37	0xbd76974d	-0.060202885
38	0x3d2c952e	0.042134456
39	0xbdb5e1d2	-0.088809624
40	0x3c597ab5	0.013273885
41	0xbd88afe0	-0.066741705
42	0x3cbe3bef	0.023221938
43	0xbd31aeea	-0.0433797
44	0xbda525e1	-0.080638655
45	0xbdc9a2ce	-0.09845506
46	0xbbe9880f	-0.007126815
47	0x3d626618	0.055273145
48	0x3b8b07a9	0.0042428565
49	0xbdde6276	-0.10858624
50	0xbdc97c0e	-0.09838115
51	0x3ced6895	0.028980533
52	0xbd773bf6	-0.060359918
53	0xbce4d552	-0.02793375
54	0x3c0da910	0.008646265
55	0xbd166506	-0.036717437
56	0x3cf23fe4	0.029571481
57	0x3d7407c6	0.059577726
58	0xbd46c109	-0.048523936
59	0xbd5dfac0	-0.054194212
60	0x3d3be1fa	0.045869805
61	0xbd86f704	-0.06590083
62	0xbd3878c5	-0.04503705
63	0x3da3989c	0.07988092
64	0x3ad5fa57	0.0016325217
65	0xbd051777	-0.03249308
66	0xbd2c474e	-0.04206019
67	0x3dad03ea	0.08448012
68	0x3d44f775	0.048087556
69	0xbd98c058	-0.07458562
70	0x3d9e9757	0.077437095
71	0xbd8100c7	-0.062989764
72	0xbd6e578b	-0.058188956
73	0x3bfe5bc0	0.0077624023
74	0x3d10421a	0.03521929
75	0x3d98c541	0.07459498
76	0xbd9934a3	-0.07480743
77	0x3b6a1120	0.0035715774
78	0xbd95739f	-0.072974436
79	0xbd682c4d	-0.056682874
80	0x3d7e982a	0.062156834
81	0xbcc19510	-0.023630649
82	0xbb9de550	-0.004818596
83	0x3cf81c0c	0.030286811
84	0x3d4b40e9	0.04962245
85	0xbd8e23e5	-0.0694044
86	0x3cdd2fe4	0.027000375
87	0xbcb5b1a3	-0.02217943
88	0x3db31365	0.087439336
89	0xbdd0d83a	-0.10197492
90	0xbd817cc6	-0.06322627
91	0xbd8153ee	-0.063148364
92	0x3dc48c63	0.09597089
93	0x3b88251c	0.0041548144
94	0xbd949bc3	-0.07256272
95	0x3bc74548	0.006081257
96	0x3d8d398d	0.068957426
97	0xbdaeb3c2	-0.0853038
98	0xbd75db74	-0.06002374
99	0x3b13cb50	0.0022551604
100	0xbdd3a13d	-0.10333488
101	0xbdb2e6bc	-0.08735415
102	0x3c63ab8a	0.013895879
103	0xbdcc1735	-0.09965364
104	0x3ca59ad3	0.020215428
105	0xbd49aeb6	-0.049238883
106	0x3d361e7e	0.044462673
107	0x3d54aa5c	0.05192028
108	0x3a3b11f1	0.00071361574
109	0x3cd9cad8	0.026585981
110	0xbb06e6c0	-0.0020584315
111	0xbddadd91	-0.10686792
112	0x3d82435e	0.063605055
113	0xbd2cc6fc	-0.042181954
114	0x3d3abf0f	0.045592364
115	0xbdae840e	-0.08521281
116	0xbcfaa48a	-0.030596036
117	0x3c8230a5	0.015892336
118	0x3d45b55d	0.048268665
119	0x3d90ca9d	0.070698954
120	0xbc9ef229	-0.01940258
121	0x3d880444	0.066414386
122	0x3dc3298e	0.0952941
123	0xbcd86994	-0.026417531
124	0x3df7a752	0.12092461
125	0x3ce9dd6a	0.028547961
126	0x3d7978c6	0.060906194
127	0xbd8f85fe	-0.07007979
128	0xbda2866f	-0.079357974
129	0xbbdb980b	-0.0067014745
130	0xbb2c27a4	-0.0026268745
131	0x3cfab64f	0.03060451
132	0xbdc2a99f	-0.09505009
133	0x3cb71580	0.02234912
134	0x3d71221c	0.05887042
135	0x3d8b11fa	0.06790538
136	0xbda6be93	-0.08141818
137	0xbda09a7f	-0.07841968
138	0xbdb0fe87	-0.08642297
139	0x3d04a375	0.032382447
140	0x3d664832	0.056221195
141	0x3a4c4738	0.0007792595
142	0x3dbd1a6e	0.09233557
143	0xbdc16bca	-0.09444387
144	0x3dde60b2	0.10858287
145	0xbd8e316b	-0.069430195
146	0xbd8b08e3	-0.067888044
147	0xbdde1989	-0.10844714
148	0xbdc3ac66	-0.09554367
149	0x3d541380	0.05177641
150	0x3c841c61	0.016126813
151	0x3dd326aa	0.10310109
152	0xbd94ced5	-0.072660126
153	0xbc66b0d8	-0.014080249
154	0x3cde2b0c	0.027120136
155	0x3d98c4c7	0.07459407
156	0x3d51a3f1	0.051181737
157	0x3cf599a2	0.029980484
158	0xba1835cd	-0.0005806357
159	0xbd2a99ac	-0.04165046
160	0x3d5f2279	0.054476235
161	0xbda2a890	-0.07942307
162	0xbd9bfb5f	-0.076163046
163	0xbd2a4bf3	-0.041576337
164	0xbd7cdfd9	-0.061736915
165	0xbadde128	-0.0016928064
166	0xbd16df46	-0.036834024
167	0x3c82c5f9	0.015963541
168	0x3d52faea	0.05150882
169	0x3bdb6cbb	0.0066963113
170	0x3dc91f0a	0.09820373
171	0x3e040523	0.12892585
172	0x3d3e82f4	0.046511605
173	0x3d8453a3	0.06461265
174	0xbc8fed12	-0.017569099
175	0xbd372b00	-0.044718742
176	0x3dd04a68	0.10170442
177	0x3e015fb5	0.12634166
178	0x3d1e7824	0.038688794
179	0x3dc625d7	0.09675186
180	0x3d0866fb	0.033301335
181	0xbd48e32a	-0.049044766
182	0xbc40656e	-0.011742933
183	0x3cc55d43	0.024092322
184	0xbc702ad6	-0.01465865
185	0xbdcb7276	-0.09933941
186	0x3d7616a9	0.060080204
187	0x3caba9fa	0.020955075
188	0xbda41920	-0.08012605
189	0xbc8fb6a4	-0.017543145
190	0xbdc5b885	-0.09654335
191	0xbca8a136	-0.020584684
192	0x3d481426	0.04884734
193	0x3d0ddeaf	0.034636196
194	0xbdbbae76	-0.09164135
195	0x3d2eaff2	0.042648263
196	0xbb35e5cf	-0.0027755385
197	0x3d47ed13	0.048810076
198	0x3aad1a7f	0.0013206749
199	0x3d7f2e0c	0.062299773
200	0xbd8fe919	-0.07026882
201	0x3df8e057	0.121521644
202	0x3dcd9161	0.100374945
203	0x3d91c70a	0.07118042
204	0x3de14e23	0.110012315
205	0xbcb3a71e	-0.021930274
206	0x3d6ca7ae	0.0577771
207	0x3cd9811f	0.026550828
208	0x3c5eafea	0.013591746
209	0x3d4e2a79	0.050333474
210	0xbd54c3a8	-0.051944405
211	0x3c943327	0.018090798
212	0xbd83cd4b	-0.06435641
213	0xbcc256fe	-0.023723122
214	0xbd12d4aa	-0.035847344
215	0x3d323aee	0.04351323
216	0xbcd586d2	-0.026065264
217	0x3d934c8f	0.07192337
218	0x3ba89790	0.005145021
219	0x3d4cebfe	0.050029747
220	0xbdd0393d	-0.10167167
221	0x3d760a65	0.060068507
222	0xbd56f50c	-0.05247979
223	0x3d715c71	0.05892605
224	0x3db24402	0.08704378
225	0xbc349aad	-0.011023206
226	0x3d2c240a	0.042026557
227	0x3d5cdba7	0.053920414
228	0x3d90052e	0.07032238
229	0xbb87ae24	-0.004140632
230	0x3ba19608	0.004931215
231	0xbdb6290d	-0.088945486
232	0xbdb42f6a	-0.08798106
233	0xbda94362	-0.082648054
234	0x3d05d872	0.03267712
235	0xbdcee18d	-0.10101614
236	0x3cc3a006	0.023880016
237	0x3dae1a53	0.08501115
238	0x3d32454e	0.043523125
239	0xbd24b638	-0.04021284
240	0x3baff5ba	0.005369869
241	0xbd72da35	-0.05929013
242	0x3c52424e	0.012833191
243	0xbd2e72ac	-0.04258983
244	0x3cccbac3	0.024991399
245	0x3c8ab5a1	0.01693231
246	0x3cf74aef	0.030187098
247	0x3c90d8bf	0.017681478
248	0xbd4de4a3	-0.050266873
249	0x3d8f1a82	0.06987478
250	0x3c7f2b39	0.01557427
251	0x3dcc4b63	0.099753164
252	0xbdf4e8ae	-0.11958443
253	0x3c043abb	0.008070643
254	0x3d21404b	0.039367955
255	0x37bfd100	2.2866298e-05

conv_block_1.2.bias f4 [10]
0	0xbcd21943	-0.025646811
1	0x3db563d1	0.08856929
2	0x3db1e361	0.08685947
3	0x3dcf5f35	0.10125581
4	0x3d8ef933	0.06981125
5	0xbdbd40e3	-0.09240892
6	0xbd0ed9dc	-0.034875736
7	0xbd3e728c	-0.04649596
8	0x3d8b1115	0.067903675
9	0x3cd73f94	0.026275434

conv_block_2.0.weight f4 [10, 10, 3, 3]
0	0x3cd2d03e	0.025734063
1	0xbd930bd0	-0.071799874
2	0x3d2ef21a	0.042711355
3	0x3ce5e9a9	0.02806552
4	0xbc55ca84	-0.013048772
5	0xbd10f6ab	-0.03539149
6	0xbd18d957	-0.037316646
7	0xbd06ddaa	-0.03292624
8	0x3daf7532	0.08567275
9	0xbdc8fc9e	-0.09813808
10	0xbd69004c	-0.05688505
11	0xbda5cf62	-0.08096196
12	0x3d0ca3dc	0.034335956
13	0xbcf2746c	-0.02959653
14	0xbd34c8d9	-0.044136856
15	0xbdd72a27	-0.10506087
16	0x3c8f9a27	0.01752956
17	0xbd9238ff	-0.071397774
18	0x3ddcfbcf	0.10790216
19	0xbdb3d5af	-0.08780991
20	0x3dcf05f5	0.10108558
21	0xbd7e141c	-0.062030897
22	0x3d0da4b0	0.034580886
23	0x3dd9e3ad	0.10639129
24	0x3dc93501	0.09824563
25	0x3dccd9e9	0.100025006
26	0x3d1357b1	0.0359723
27	0x3d9f7780	0.07786465
28	0xbdad5d58	-0.084650695
29	0x3b77221d	0.0037709542
30	0xbdd765b6	-0.10517447
31	0xbdba6cbc	-0.09102771
32	0xbd596064	-0.05307044
33	0xbcab0522	-0.020876471
34	0xbb422caa	-0.0029628673
35	0x3d81ce17	0.06338137
36	0xbdc3bce1	-0.0955751
37	0xbccc562c	-0.024943434
38	0x3dd04157	0.101687126
39	0x3d2a00ee	0.041504793
40	0x3da5fa18	0.08104342
41	0x3d9b980d	0.07597361
42	0xbc9dd600	-0.019267082
43	0xbd9133b3	-0.07089939
44	0x3d8bd077	0.06826871
45	0xbd3667a8	-0.044532448
46	0xbd8acda8	-0.06777507
47	0xbda8c61e	-0.08240913
48	0xbd9d0d5a	-0.07668562
49	0x3d3e36a2	0.04643882
50	0xbd3091d9	-0.04310784
51	0x3d9febcf	0.07808649
52	0xbda5ec88	-0.081017554
53	0xbc83e4b0	-0.016100258
54	0xbd84542f	-0.06461369
55	0xbd3268d8	-0.043557018
56	0xbdbefe8a	-0.09325893
57	0x3d48f2a0	0.04905951
58	0xbcbb1c7b	-0.022840729
59	0xbdbc6a0e	-0.09199916
60	0xbd89a1cb	-0.06720313
61	0xbc68f52e	-0.014218612
62	0xbd119aff	-0.035548206
63	0x3d063aa5	0.03277077
64	0xbccba75e	-0.02486008
65	0x3dc0869c	0.09400675
66	0x3daa5e69	0.083187886
67	0xbc9cb5fe	-0.01912975
68	0xbd429757	-0.04750761
69	0x3dd61c01	0.1045456
70	0xbd183ce4	-0.037167445
71	0x3dbac335	0.09119264
72	0xbd1369c3	-0.035989534
73	0x3d86b89d	0.06578181
74	0x3cd62c0c	0.02614405
75	0x3d29e70c	0.04148011
76	0x3d9e7ae5	0.07738284
77	0x3c34d431	0.0110369185
78	0x3d5ca57e	0.053868763
79	0x3d92335c	0.07138702
80	0x3ce572df	0.028008876
81	0xbd74a400	-0.059726715
82	0x3b457891	0.0030131678
83	0x3dbe2797	0.09284895
84	0xbc7b2cec	-0.015330534
85	0x3d562d2d	0.052289177
86	0x3dc746db	0.097303115
87	0xbb762c04	-0.0037562856
88	0x3c3b3c75	0.011427988
89	0xbb892eb5	-0.004186476
90	0x3d289925	0.041161675
91	0xbd34cf5b	-0.044143062
92	0xbd91feb8	-0.07128662
93	0x3d038dd2	0.032117672
94	0xbdb5807d	-0.08862398
95	0xbd3b6c44	-0.045757547
96	0xbdb6f608	-0.089336455
97	0x3bb5aaf3	0.0055440604
98	0x3dc9e893	0.09858813
99	0x3d488930	0.048958957
100	0x3c2534bc	0.010083374
101	0x3dd14850	0.10218871
102	0xbca31323	-0.019906586
103	0x3db3887e	0.08766268
104	0x3d6d9838	0.058006495
105	0x3d6af8d0	0.057366192
106	0x3d97e194	0.074160725
107	0x3a12fe7d	0.000560738
108	0xbd1cbc44	-0.03826548
109	0x3d4734c0	0.04863429
110	0xbd99c2ec	-0.075078815
111	0x3cf7d633	0.030253505
112	0xbdba90d0	-0.09109652
113	0xbd745b46	-0.059657358
114	0x3dbf9643	0.09354832
115	0xbd5ca7e0	-0.053871036
116	0x3d2c5608	0.042074233
117	0xbc339d35	-0.010962774
118	0xbd5836bb	-0.05278657
119	0x3da7bd23	0.08190372
120	0x3d981a61	0.074269064
121	0x3bd85a6e	0.006602577
122	0x3ded7088	0.11593729
123	0xbd7ecd68	-0.06220761
124	0x3db8d597	0.09025114
125	0x3dad236a	0.0845402
126	0x3c358fd1	0.011081652
127	0xbbe748ab	-0.0070582232
128	0x3c537b54	0.012907822
129	0x3cf73f1e	0.030181464
130	0xbda1e71f	-0.07905411
131	0x3d505003	0.050857555
132	0x3ccd1627	0.025034977
133	0xbda51cca	-0.08062132
134	0x3d15c07b	0.036560517
135	0x3da69141	0.08133174
136	0xbd97ae64	-0.07406309
137	0xbdcacb3f	-0.09902047
138	0xbda7f530	-0.08201063
139	0x3dcf8d1d	0.10134337
140	0xbcdc9fd4	-0.02693168
141	0xbd86c518	-0.065805614
142	0xbdbdde11	-0.092708714
143	0xbcc80ce0	-0.024420202
144	0xbda44df0	-0.08022678
145	0xbd94bdd9	-0.07262773
146	0xbdd44391	-0.1036445
147	0x3d5f0fc3	0.05445839
148	0xbd6f0fd4	-0.058364704
149	0x3d503a71	0.050836984
150	0x3cad51e4	0.021157213
151	0x3d88e141	0.06683589
152	0xbd9ef495	-0.07761494
153	0xbd69b478	-0.057056874
154	0xbdae4e23	-0.08510997
155	0xbd5c4164	-0.0537733
156	0x3d85be72	0.06530465
157	0xbd898e4c	-0.06716594
158	0x3be81147	0.0070821377
159	0xbd9de66f	-0.07709967
160	0xbc988bc6	-0.018621337
161	0x3a9db9b8	0.0012033498
162	0x3dd7cf5b	0.10537597
163	0x3da7caa4	0.081929475
164	0x3dd771b9	0.10519738
165	0x3d823a31	0.063587554
166	0xbd824465	-0.063607015
167	0x3da1d903	0.0790272
168	0xbd1a8843	-0.037727606
169	0x3ddd23ca	0.10797842
170	0x3c70d9ea	0.014700392
171	0xbda435fb	-0.080181085
172	0xbcc21eda	-0.023696352
173	0xbd09e99b	-0.03367005
174	0x3d64867b	0.055792313
175	0x3d59efe1	0.053207282
176	0x3d3c1a5f	0.045923587
177	0xbd553b4b	-0.0520585
178	0x3cda7d41	0.026671054
179	0x3c02201a	0.007942224
180	0xbc11ce38	-0.008899264
181	0x3dd1d035	0.102447905
182	0x3dcd12ef	0.10013377
183	0xbdc47fed	-0.095947124
184	0x3da39843	0.07988026
185	0xbd757da5	-0.059934277
186	0x3d4c1e76	0.049833737
187	0x3d563432	0.05229587
188	0xbda117f8	-0.078659
189	0x3d21ae09	0.039472613
190	0x3c14dcb1	0.00908582
191	0x3d1f9a63	0.038965594
192	0x3deb13b3	0.11478367
193	0x3d3c9d44	0.046048418
194	0x3cd7e06d	0.026352132
195	0x3d9b25ce	0.0757557
196	0x3d679d72	0.056546636
197	0xbd0a64b6	-0.03378745
198	0xbc4c4252	-0.012466984
199	0xbd897b3e	-0.0671296
200	0xbc93fa7e	-0.01806378
201	0x3dd45b22	0.10368945
202	0x3d716dc6	0.05894258
203	0x3a6052df	0.00085572706
204	0x3c02aacd	0.007975292
205	0x3d186a77	0.037210908
206	0xbc972f7f	-0.018455265
207	0x3d8d015e	0.068850264
208	0xbc615a94	-0.013754506
209	0xbb997cbd	-0.0046840594
210	0x3dd83296	0.105565235
211	0x3dbe5b58	0.09294766
212	0x3dcb923a	0.0994
213	0x3df4815c	0.11938736
214	0xbd588511	-0.052861277
215	0xbcf90489	-0.03039767
216	0x3d592795	0.053016264
217	0x3dc55000	0.096343994
218	0x3d2f7029	0.042831574
219	0xbd9889d7	-0.07448166
220	0xbca328e5	-0.019916961
221	0x3d417ca1	0.047237996
222	0xbd672043	-0.05642725
223	0x3cfb47be	0.030673858
224	0x3d8c6a17	0.068561725
225	0xbc2b7860	-0.010465711
226	0x3d4123f2	0.04715342
227	0xbd2d29c2	-0.04227615
228	0x3dc1d657	0.0946471
229	0x3daeb551	0.08530677
230	0x3dd13f85	0.102171935
231	0x3b04e1a0	0.0020276085
232	0x3d52d472	0.051472135
233	0xb9c00100	-0.0003662184
234	0x3d986101	0.07440377
235	0x3d74b4d3	0.05974276
236	0x3d8b32ae	0.06796776
237	0xbce84df2	-0.02835748
238	0x3d6f7dcb	0.058469575
239	0x3dacde4a	0.08440836
240	0x3d8a86d1	0.067639954
241	0x3dd99f5a	0.10626097
242	0xbdc365d4	-0.095409065
243	0x3d810a5a	0.063008025
244	0xbc8d5249	-0.01725115
245	0x3cba5d9a	0.02274971
246	0xbde3f13d	-0.11129997
247	0xbd0f4cba	-0.03498528
248	0xbd305ea3	-0.043059003
249	0xbd012350	-0.031527817
250	0xbdc29f44	-0.09503034
251	0x3dabf518	0.08396357
252	0x3b3f09de	0.0029150168
253	0x3d3e080e	0.0463944
254	0xbdae7dfb	-0.085201226
255	0x3dad65cd	0.084666826

conv_block_2.0.bias f4 [10]
0	0x3c8a1822	0.01685721
1	0xbd1548c5	-0.03644635
2	0xbc3d68e1	-0.01156065
3	0x3d1c333d	0.038134802
4	0xbccd83d8	-0.025087282
5	0x3d8280a8	0.063721955
6	0xbd9452e8	-0.072423756
7	0xbd8acb62	-0.067770734
8	0xbd261bb1	-0.040553752
9	0xbd0fc220	-0.03509724

conv_block_2.2.weight f4 [10, 10, 3, 3]
0	0xbc9bfeeb	-0.019042453
1	0xbcef5272	-0.029214118
2	0x3d43b0f0	0.047776163
3	0x3da64abe	0.08119725
4	0x3d478fae	0.048721008
5	0x3d068df2	0.032850213
6	0xbd665345	-0.056231756
7	0xbcc34f4a	-0.023841519
8	0xbc2385ad	-0.009980601
9	0x3be8db74	0.007106239
10	0xbd05f054	-0.032699898
11	0x3bc08542	0.0058752606
12	0xbd7e4339	-0.062075827
13	0xbd9647ee	-0.07337938
14	0x3b9865e3	0.0046508177
15	0xbd203bcc	-0.039119527
16	0xbd351e29	-0.044218216
17	0xbd147eb9	-0.036253665
18	0x3d1c741c	0.038196668
19	0xbda56a56	-0.080769226
20	0x3d255d9d	0.04037248
21	0xbddb6a1b	-0.107135974
22	0x3d130ccb	0.035900872
23	0x3d48039d	0.04883157
24	0x3d5fa2b6	0.054598533
25	0x3cc54f2e	0.024085607
26	0xbddb4faa	-0.10708554
27	0xbdc8a5ec	-0.09797272
28	0x390eede6	0.000136308
29	0xbd3a1345	-0.045428533
30	0xbd46de8c	-0.04855208
31	0xbdc5a01c	-0.09649679
32	0xbd959358	-0.07303494
33	0xbd0fa817	-0.035072412
34	0xbc58ab65	-0.013224457
35	0x3d320fb6	0.043472014
36	0xbd68bb0d	-0.05681901
37	0x3db71261	0.089390524
38	0xbd814919	-0.063127704
39	0x3cf62e54	0.030051388
40	0x3dad4fdd	0.08462498
41	0x3c0cd970	0.008596763
42	0xbc842698	-0.016131684
43	0xbcfc1648	-0.030772343
44	0xbd62db60	-0.055384994
45	0x3cb82232	0.022477243
46	0x3d917549	0.071024485
47	0x3d52fb17	0.05150899
48	0xbd8d74b2	-0.069070235
49	0x3ca8c8be	0.020603534
50	0x3dae8d20	0.08523011
51	0xbdb8c515	-0.090219654
52	0xbdc4f23a	-0.096165136
53	0xbd3b15bf	-0.045675036
54	0x3ce30c1a	0.027715731
55	0xbd31b78b	-0.04338793
56	0xbda76ec0	-0.08175421
57	0xbd2d30a6	-0.042282723
58	0xbccab97c	-0.024746649
59	0x3dab120a	0.0835305
60	0xbc2ce94e	-0.010553671
61	0x3a141339	0.00056486164
62	0xbd6ae7c2	-0.057349928
63	0xbc3df8e6	-0.011594987
64	0x3e05d7e9	0.13070644
65	0x3d481d40	0.04885602
66	0xbd15b7d4	-0.036552265
67	0x3da07ea2	0.07836653
68	0xbd705c07	-0.058681514
69	0x3daa396a	0.08311732
70	0xbd8c57ba	-0.0685267
71	0x3dc9c9eb	0.09852966
72	0xbd780fe6	-0.060562037
73	0x3d9869d6	0.074420616
74	0x3dfebb3e	0.12438057
75	0x3cc0e093	0.023544585
76	0xbdcc1c6e	-0.0996636
77	0x3dda2fac	0.10653624
78	0xbd8690c5	-0.06570581
79	0x3db954fe	0.09049414
80	0x3b8bdad9	0.004268032
81	0xbd2ced3a	-0.042218424
82	0xbd3554b5	-0.044270236
83	0xbdb47b5f	-0.08812594
84	0x3d846c57	0.06465977
85	0xbdde345a	-0.10849829
86	0xbdb98c2a	-0.09059937
87	0x3db3aa1d	0.08772681
88	0x3d99de4f	0.07513105
89	0x3d92a51e	0.071604
90	0xbde2349b	-0.1104519
91	0xbde073fc	-0.10959622
92	0x3d7c2be9	0.061565313
93	0x3dacbec4	0.08434823
94	0xbd85fe46	-0.065426394
95	0xbd9d623c	-0.07684752
96	0xbdc071a0	-0.09396672
97	0xbdc7b989	-0.09752185
98	0x3c949ad2	0.01814023
99	0xbd18d857	-0.037315693
100	0xbd27f710	-0.0410071
101	0xbd5a5c2e	-0.053310566
102	0xbcf08a02	-0.029362682
103	0x3d6a62cd	0.05722313
104	0x3d395bfd	0.045253742
105	0x3d5a31ab	0.053270023
106	0x3d351b3f	0.044215437
107	0x3dba69a6	0.09102182
108	0x3df5303c	0.119720906
109	0xbbdc5bcc	-0.00672481
110	0x3d2be347	0.041964795
111	0x3d5d83da	0.05408082
112	0x3d229d05	0.039700527
113	0x3de8b726	0.11363058
114	0x3e047f8f	0.12939285
115	0x3dcf4692	0.10120882
116	0x3d4529dd	0.048135627
117	0xbc83ff8e	-0.016113069
118	0xbd16271e	-0.0366584
119	0x3dd14fdc	0.1022031
120	0x3d89d0c6	0.067292735
121	0x3cf35199	0.029701995
122	0x3daecf93	0.085356854
123	0x3d8609b4	0.065448195
124	0x3c86e3bb	0.016466012
125	0xbd06b74b	-0.032889646
126	0xbdab055d	-0.08350632
127	0xbc4497a8	-0.011999048
128	0xbdc1280e	-0.09431468
129	0x3d3d34e6	0.046193026
130	0x3da055a7	0.07828837
131	0x3c8916cc	0.016734503
132	0x3d5e96fe	0.054343216
133	0xbbd679b0	-0.006545268
134	0x3dcaf927	0.09910803
135	0x3cad9a50	0.021191746
136	0xbda72d1c	-0.08162901
137	0x3d3feca7	0.04685655
138	0xbda2d2c6	-0.07950358
139	0xbd1b85b2	-0.0379693
140	0x3d66ba58	0.056330055
141	0x3decb505	0.11557964
142	0xbc8c3e31	-0.017119499
143	0xbd1ab49e	-0.037769906
144	0x3cf1ebdc	0.029531412
145	0x3da5c131	0.08093489
146	0xbca2a024	-0.019851752
147	0x3d590e99	0.052992437
148	0xbdb3cc5f	-0.08779215
149	0xbd4b4bb5	-0.049632747
150	0x3dacc3af	0.08435761
151	0xbdd822b1	-0.10553492
152	0x3d6a5eea	0.057219423
153	0xbdca5349	-0.09879167
154	0x3c9e717e	0.019341227
155	0xbd6f2d19	-0.058392618
156	0x3d3276bf	0.043570276
157	0x3cc44ef0	0.023963422
158	0xbd8ae819	-0.0678255
159	0xbdbf0cda	-0.09328623
160	0x3cf815da	0.030283857
161	0x3d8ae7a9	0.06782467
162	0x3ca0ed5a	0.019644428
163	0x3dd1814f	0.10229742
164	0xbd99d9f6	-0.07512276
165	0xbd18af0e	-0.03727632
166	0xbdd7418b	-0.10510548
167	0xbc59f311	-0.01330258
168	0xbd0c3013	-0.034225535
169	0xbd87a90a	-0.066240385
170	0xbc3aff4e	-0.011413408
171	0xbd82fe31	-0.063961394
172	0x3cba9800	0.022777557
173	0xbcdd357a	-0.027003039
174	0x3d502a89	0.050821815
175	0x3c7b93c6	0.015355056
176	0xbdde104a	-0.10842951
177	0xbd4e749a	-0.05040417
178	0x3d98d66d	0.074627735
179	0x3d4f657c	0.050633892
180	0x3ba58b83	0.0050520315
181	0x3d8354da	0.064126685
182	0x3d126899	0.035744283
183	0xbced433a	-0.02896272
184	0x3db6cc1e	0.08925651
185	0x3d9b9c74	0.075982004
186	0xbdbb931c	-0.09158918
187	0x3cc8b1f2	0.024498913
188	0x3dc61f0a	0.09673889
189	0x3d9d0036	0.07666056
190	0xbdb4209b	-0.087952815
191	0x3dac2df1	0.084072
192	0x3d4cc0b6	0.04998847
193	0xbdc42c0a	-0.09578712
194	0x3dcad55b	0.099039756
195	0x3dd29538	0.102823675
196	0x3dc21b88	0.094779074
197	0xbd7334e2	-0.059376605
198	0x3da07d8f	0.078364484
199	0xbd6d5975	-0.05794664
200	0xbd742574	-0.05960603
201	0x3dacad01	0.084314354
202	0xbdb76dab	-0.089564644
203	0x3bf67a2d	0.0075218887
204	0x3d1efefc	0.03881739
205	0xbcac7099	-0.021049784
206	0x3dc8543f	0.09781694
207	0x3d37c8c8	0.044869214
208	0xbc610a58	-0.013735376
209	0x3d32d384	0.04365875
210	0xbd14d2ac	-0.036333725
211	0xbdace2d6	-0.08441703
212	0x3da3489c	0.079728335
213	0x3d981a8d	0.07426939
214	0xbdb4d722	-0.08830096
215	0x3db1e6be	0.08686589
216	0xbdb2ae4f	-0.08724653
217	0x3d8f6bcf	0.07002985
218	0xbd35b063	-0.04435767
219	0x3c74cd20	0.014941484
220	0xbc6e1e20	-0.01453355
221	0xbd411ae3	-0.04714478
222	0x3d9a9c83	0.075493835
223	0x3d8be5ef	0.06830966
224	0x3c869550	0.01642862
225	0xbcd6eec4	-0.0262369
226	0x3db866a8	0.09003955
227	0xbcfdc136	-0.03097592
228	0xbd21c8d6	-0.039498173
229	0x3c952de3	0.018210357
230	0x3d94e342	0.072699085
231	0xbb6802ad	-0.0035401986
232	0xbcbc8acc	-0.023015402
233	0xbd0d49a1	-0.034494046
234	0xbc8a2404	-0.016862877
235	0x3d5fe10b	0.054657977
236	0x3dda0305	0.10645107
237	0xbc19adb1	-0.00937979
238	0x3dd43dc2	0.10363342
239	0xbcaaf247	-0.02086748
240	0x3dbbabd3	0.09163632
241	0x3db6603a	0.089050725
242	0x3c95a2b1	0.018266054
243	0xbd85c8b8	-0.06532425
244	0x3da6b88a	0.08140667
245	0x3dd33119	0.10312099
246	0x3c28306b	0.01026545
247	0x3d676c4e	0.05649977
248	0x3d98a323	0.07452991
249	0x3ce94aeb	0.028478106
250	0x3dd9a4da	0.10627146
251	0x3af44e6a	0.0018639092
252	0x3cb6218d	0.022232795
253	0xbd03a4d0	-0.0321396
254	0x3ca6a1db	0.02034085
255	0x3cdc49d6	0.026890676

conv_block_2.2.bias f4 [10]
0	0x3cae37f6	0.021266919
1	0x3d9a5053	0.07534852
2	0xbb0421a3	-0.002016165
3	0x3d7f8ba6	0.06238904
4	0xbd182e6e	-0.037153654
5	0x3cb0ef75	0.021598557
6	0x3db86d2e	0.090051994
7	0x3b03d9fc	0.0020118942
8	0xbcf624eb	-0.0300469
9	0x3ccd1f1d	0.02503925

classifier.1.weight f4 [3, 1690]
0	0x3ca04f08	0.019568935
1	0x3c33bc46	0.010970181
2	0xbb98750f	-0.0046526263
3	0x3c3cd110	0.011524454
4	0xbcd9e2c2	-0.026597384
5	0x3ca39758	0.019969627
6	0x3752cdc0	1.256488e-05
7	0xbcafe4da	-0.02147143
8	0xbc25956b	-0.010106425
9	0x3c99ce52	0.018775139
10	0x3b5eae8e	0.0033978554
11	0x3c95b467	0.0182745
12	0x3b280efd	0.00256437
13	0xbc6cd7ad	-0.014455718
14	0x3cb89d65	0.022535989
15	0x3c577269	0.013149836
16	0x3c9b364f	0.018946795
17	0xbc3653dd	-0.011128393
18	0x3cae774c	0.02129712
19	0xbcd278c1	-0.025692346
20	0x3c0368d9	0.008020603
21	0x3c4332e1	0.011913986
22	0xbc2f0848	-0.010683127
23	0xbc8829ab	-0.016621431
24	0xbcaed2e9	-0.021340804
25	0xbc78968d	-0.015172613
26	0x3cc8c493	0.024507796
27	0xbcbda269	-0.023148732
28	0x3ca7dc5a	0.020490814
29	0x3c363d6e	0.011123044
30	0x3c83e91b	0.016102364
31	0xba7108db	-0.000919474
32	0xbc9659ad	-0.018353308
33	0xbc830441	-0.01599324
34	0xbb5df893	-0.0033870086
35	0xbc82c4c9	-0.015962975
36	0xbb4027a8	-0.0029320512
37	0xbbd51bca	-0.006503557
38	0xbc5291ce	-0.012852145
39	0xbbc3b51f	-0.005972519
40	0x3c3debc5	0.011591856
41	0x3c991dc4	0.018690951
42	0xbc85e3a1	-0.016343893
43	0x3c92c3b7	0.01791559
44	0xbc83d368	-0.016092017
45	0x3c84ae2a	0.01619633
46	0x3b902e22	0.0044000307
47	0x3ce7f208	0.028313652
48	0x3cd0c28c	0.025483392
49	0x3c2d560e	0.010579599
50	0xbc6e3251	-0.014538364
51	0xbab38267	-0.0013695479
52	0xbc6e7830	-0.014555022
53	0x3d010764	0.03150119
54	0xbbf27061	-0.0073986505
55	0x3cffafd7	0.031211777
56	0x3b9d18c1	0.0047942107
57	0x3cbcf18c	0.023064397
58	0x3cdd29b2	0.026997421
59	0xbc8d0d77	-0.017218335
60	0xbc7cf91a	-0.01544025
61	0xbc19c3b1	-0.009385035
62	0x3b4a9b28	0.0030915234
63	0x3cb6d1a6	0.022316765
64	0xbc0d3e55	-0.008620818
65	0x3c8b7b37	0.017026527
66	0xbc247e50	-0.010039881
67	0xba3b7d7d	-0.0007152183
68	0x3c852ae6	0.016255807
69	0x3cbf856a	0.023379046
70	0xbab8bc61	-0.0014094227
71	0x3cb28e02	0.02179623
72	0xbaf9b085	-0.0019049799
73	0xbb832096	-0.0040016873
74	0x3cc7fcde	0.024412569
75	0x3cd06100	0.025436878
76	0x3c57d2d2	0.013172822
77	0xbc48f8c0	-0.012266338
78	0xbbc3fa39	-0.0059807566
79	0xbc85e940	-0.016346574
80	0xbc240acf	-0.010012343
81	0x3c2389b4	0.009981561
82	0x3ced9371	0.02900097
83	0x3bc7f878	0.006102618
84	0x3ce378c4	0.027767546
85	0x3a9001ef	0.0010986904
86	0xba91dabb	-0.0011127809
87	0xbb2b62b1	-0.0026151354
88	0xbc638b05	-0.013888125
89	0x3c8218cf	0.01588097
90	0xbb7ec7a2	-0.0038876315
91	0x3c9f06c0	0.019412398
92	0x3c9ab516	0.018885177
93	0xbb5348d6	-0.0032239459
94	0x3ce2d397	0.027688785
95	0x3c8a5487	0.016886009
96	0x3b49064c	0.003067392
97	0x3c9c1dee	0.01905724
98	0xbc24999c	-0.010046389
99	0xbb56a719	-0.0032753407
100	0x3cb2e64a	0.021838326
101	0x3ca8243f	0.020525096
102	0xbb437648	-0.002982514
103	0xbc6a7748	-0.014310665
104	0xbc2899f9	-0.010290616
105	0x3cba0578	0.022707686
106	0x3cb5db5b	0.022199323
107	0x3ccadd14	0.024763621
108	0xbbf5d8c4	-0.007502647
109	0x3bf92a5d	0.007603927
110	0x3cb0468f	0.02151802
111	0x3c7b8ad4	0.015352923
112	0xbc5e2074	-0.013557542
113	0x3c23d78f	0.010000124
114	0x3c81f3d2	0.015863333
115	0x3baa23ee	0.0051922714
116	0x3ba7a12a	0.005115648
117	0x3c66fa19	0.014097714
118	0x3c71b08d	0.014751566
119	0x3ce46d54	0.027884163
120	0x3c785e0f	0.015159144
121	0x3bbe1cd7	0.005801778
122	0x3c0fae34	0.008769561
123	0x3c654344	0.013993088
124	0x3c9051de	0.017617162
125	0x3c90679d	0.017627532
126	0x3b837a00	0.0040123463
127	0xbc9a512a	-0.01883753
128	0x3cb5b7bc	0.022182338
129	0x3c70ae2d	0.014689964
130	0xbb8aa502	-0.0042310962
131	0x3cab9169	0.02094336
132	0x3b87021d	0.004120125
133	0xbc84bc64	-0.016203113
134	0xbc585fd5	-0.013206442
135	0xbc59841d	-0.013276127
136	0x3c9df16b	0.019280156
137	0x3be8eec4	0.007108541
138	0x3b5e8dca	0.0033959025
139	0xbc80de79	-0.015731083
140	0x3cbcd07f	0.023048637
141	0x3cdd2302	0.026994232
142	0xbb8c58b7	-0.0042830366
143	0xbc611de6	-0.0137400385
144	0xbc912777	-0.017719014
145	0x3c1a2781	0.0094088325
146	0x3c5d3343	0.013500991
147	0x3cd05f61	0.025436105
148	0xbc544638	-0.012956195
149	0x3c2ab2ae	0.010418577
150	0xbc8e37ac	-0.01736053
151	0x3cbf5f06	0.02336074
152	0x3c29f2a1	0.010372789
153	0x3b95521f	0.0045569087
154	0xbc289e09	-0.010291585
155	0xbc01b077	-0.007915608
156	0xbc4f7a82	-0.0126634855
157	0x3c403e46	0.011733597
158	0x3b049f1f	0.0020236445
159	0x3c7870b7	0.015163592
160	0xbb2bd10d	-0.0026217133
161	0xbbe75d05	-0.0070606493
162	0x3c8e00f1	0.017334433
163	0x3cbe3154	0.02321688
164	0x3c42c851	0.011888579
165	0x3c8b1d5a	0.01698177
166	0xbba2617a	-0.004955468
167	0x3ca5a6d8	0.020221159
168	0x3ba5591e	0.005046024
169	0xbc79ad73	-0.015239107
170	0x3bb078d5	0.005385498
171	0xbc0143d6	-0.0078897085
172	0x3c155c18	0.009116195
173	0x3c83ac7c	0.016073458
174	0xbb20d965	-0.002454364
175	0xbc7e8024	-0.015533481
176	0x3c86b1eb	0.01644226
177	0xbc38a66d	-0.011270148
178	0xbca40ff3	-0.020027136
179	0xbc108d01	-0.00882268
180	0xbc6094da	-0.013707364
181	0x3ba99ddf	0.0051762904
182	0xbc1e9063	-0.009677979
183	0xb8fba32c	-0.00011999006
184	0x3c3618f9	0.011114352
185	0xbce8213a	-0.028336156
186	0x3bc7e736	0.0061005605
187	0xbcf75fb8	-0.03019701
188	0xbc831ca7	-0.016004873
189	0x3c442739	0.011972242
190	0x3b90f14a	0.004423295
191	0xbb86a5d9	-0.004109126
192	0xbd14f339	-0.036364768
193	0xbc192eb7	-0.009349517
194	0xbce3ef62	-0.027824108
195	0x3c9fc1f0	0.019501656
196	0x3b8166a1	0.003949002
197	0xba5ae372	-0.0008349932
198	0xbd0dfbd3	-0.034663986
199	0xbbe324ba	-0.0069318684
200	0x3adec75b	0.0016996668
201	0xbb999cb7	-0.0046878713
202	0xbce15430	-0.027505964
203	0x3b933680	0.004492581
204	0xbd0d7cb9	-0.034542773
205	0x3b91886a	0.0044413107
206	0xbc90dd6d	-0.017683709
207	0xbcd1f8d6	-0.02563135
208	0x3b888c30	0.0041671023
209	0xbcfe9c64	-0.031080432
210	0xbcf2db49	-0.029645579
211	0xbc743d38	-0.014907174
212	0xbd3846de	-0.04498946
213	0xbd01fcf1	-0.031735364
214	0xbd4574b1	-0.04820699
215	0xbcc46f9b	-0.023978999
216	0xbcb993f8	-0.022653565
217	0xbd30bffb	-0.043151837
218	0xbcfd2984	-0.030903585
219	0xbbdd520c	-0.0067541655
220	0xbc8ab97f	-0.016934155
221	0xbd189816	-0.037254415
222	0xbcefe3b5	-0.029283384
223	0xbcc70d56	-0.024298351
224	0xbbe2519d	-0.0069067017
225	0xbbb3a49e	-0.0054822704
226	0xbd0a3726	-0.033744
227	0xbb0f3fcb	-0.0021858092
228	0xbcb5931c	-0.022164874
229	0x3b04c97e	0.00202617
230	0x3ba66dca	0.005079006
231	0xbd1309a3	-0.035897862
232	0xbd18cff7	-0.037307706
233	0xbcfdfd52	-0.031004582
234	0xbd0c6226	-0.03427329
235	0xbba8834c	-0.005142605
236	0xbc7b9d15	-0.0153572755
237	0xbd18d8b3	-0.037316035
238	0x3b2d02b4	0.0026399316
239	0xbd0297e0	-0.03188312
240	0xbc4aab5d	-0.012369958
241	0xbc220af2	-0.009890305
242	0x3c80d64e	0.015727188
243	0xbcf3070e	-0.02966645
244	0xbd041f04	-0.03225614
245	0xbc472100	-0.012153864
246	0xbc6719fe	-0.014105318
247	0xbc18cc40	-0.009326041
248	0xbcac55fa	-0.02103709
249	0xbc8d6117	-0.01725821
250	0xbcd796e5	-0.02631707
251	0xbbbc0c6c	-0.0057387855
252	0xbd1acff5	-0.03779598
253	0xbced9ca5	-0.029005358
254	0xbcd9c44d	-0.026582861
255	0x3be448fc	0.006966708

classifier.1.bias f4 [3]
0	0x3c933ddc	0.017973833
1	0xbca57e0b	-0.020201704
2	0x3c5052e3	0.012715074
